…
net_params={'L': 4, 'hidden_dim': 128, 'out_dim': 128, 'residual': True, 'readout': 'mean', 'in_feat_dropout': 0.0, 'dropout': 0.0, 'graph_norm': True, 'batch_norm': True, 'self_loop': False, 'sparsity': 1.0, 'sparse_readout': False, 'mlp_readout': True, 'activation': 'relu', 'neighbor_aggr_GCN': 'sum', 'n_mlp': 2, 'device': device(type='cuda'), 'gpu_id': 1, 'batch_size': 20, 'in_dim': 18, 'n_classes': 6, 'total_param': 145062}

ExpanderGCNNet(
  (activation): ReLU()
  (embedding_h): ExpanderLinearLayer()
  (in_feat_dropout): Dropout(p=0.0, inplace=False)
  (layers): ModuleList(
    (0): ExpanderGCNLayer(
      (apply_func): NodeApplyModule(
        (mlp): ExpanderMultiLinearLayer(
          (layers): Sequential(
            (0): ExpanderLinearLayer()
            (1): BatchNorm1d(128, eps=1e-05, momentum=0.1, affine=True, track_running_stats=True)
            (2): ReLU()
            (3): ExpanderLinearLayer()
          )
        )
      )
      (activation): ReLU()
      (batchnorm_h): BatchNorm1d(128, eps=1e-05, momentum=0.1, affine=True, track_running_stats=True)
    )
    (1): ExpanderGCNLayer(
      (apply_func): NodeApplyModule(
        (mlp): ExpanderMultiLinearLayer(
          (layers): Sequential(
            (0): ExpanderLinearLayer()
            (1): BatchNorm1d(128, eps=1e-05, momentum=0.1, affine=True, track_running_stats=True)
            (2): ReLU()
            (3): ExpanderLinearLayer()
          )
        )
      )
      (activation): ReLU()
      (batchnorm_h): BatchNorm1d(128, eps=1e-05, momentum=0.1, affine=True, track_running_stats=True)
    )
    (2): ExpanderGCNLayer(
      (apply_func): NodeApplyModule(
        (mlp): ExpanderMultiLinearLayer(
          (layers): Sequential(
            (0): ExpanderLinearLayer()
            (1): BatchNorm1d(128, eps=1e-05, momentum=0.1, affine=True, track_running_stats=True)
            (2): ReLU()
            (3): ExpanderLinearLayer()
          )
        )
      )
      (activation): ReLU()
      (batchnorm_h): BatchNorm1d(128, eps=1e-05, momentum=0.1, affine=True, track_running_stats=True)
    )
    (3): ExpanderGCNLayer(
      (apply_func): NodeApplyModule(
        (mlp): ExpanderMultiLinearLayer(
          (layers): Sequential(
            (0): ExpanderLinearLayer()
            (1): BatchNorm1d(128, eps=1e-05, momentum=0.1, affine=True, track_running_stats=True)
            (2): ReLU()
            (3): ExpanderLinearLayer()
          )
        )
      )
      (activation): ReLU()
      (batchnorm_h): BatchNorm1d(128, eps=1e-05, momentum=0.1, affine=True, track_running_stats=True)
    )
  )
  (readout): MLPReadout(
    (FC_layers): ModuleList(
      (0): Linear(in_features=128, out_features=64, bias=True)
      (1): Linear(in_features=64, out_features=32, bias=True)
      (2): Linear(in_features=32, out_features=6, bias=True)
    )
  )
)

Total Parameters: 145062


    FINAL RESULTS
TEST ACCURACY averaged: 65.5556 with s.d. 4.1574
TRAIN ACCURACY averaged: 99.7917 with s.d. 0.2946


    Total Time Taken: 0.1361 hrs
Average Time Per Epoch: 0.5202 s


All Splits Test Accuracies: [0.6666666666666666, 0.6, 0.7]